NetworksModels/1460789161/filterLayer0_filters.npy (npy, 880 bytes, 1 tensors)

array f8 [1, 4, 25]
-2.4481520794461424 0.22316338616922238 -1.798824137978705 -1.1598867547873364 0.2217107496152435 -0.07318510492926233 -0.9147189931326709 -0.8353279747448248
-0.4591337598366878 0.21715237289351186 -1.0852821911448682 0.7604304076262434 -0.5638337787783888 -0.8895608061597383 0.388009997531894 -2.0296342325653973
1.026659036635576 -2.0651626101498715 -0.33804783830194507 -1.6209391993356523 -1.0004152618847728 -1.0137981309342003 -0.2539076965341438 -1.8581952898926701
-1.5487623286810182 -0.12485526502610256 -1.2605026654666238 -0.9134554594823456 -1.5042526456976384 -0.01416609362573129 -2.3279302140529374 -1.7785841316445903
0.29262411188597603 -0.2552020359479493 -0.10532347459622293 -2.9678609508144245 -0.8431036165690932 -0.18206259729144492 -0.19735759409632803 -1.1551630678826135
-0.37871599799123734 0.1840376374515813 -1.305880458052738 -0.8372348891694261 -1.3472754071426263 -0.32461854929854406 -1.858238612094587 -2.0830387221974593
-0.15791051568672687 -1.5790865000218695 -0.19054450191065928 -0.8014319440639347 0.4587009834963093 -1.2360495123712527 0.07608984762555207 1.4417304643886624
-0.4792207968520004 -0.89063888313158 -0.9800389432019864 0.8218766932066445 -0.7230497261273996 0.7411269206492791 0.3701992557876599 -0.5776458658407887
1.0692805393576157 -1.853431591810113 -0.10308850417452113 -0.3433955989628111 0.6553173005430628 -1.457033580606178 0.6671037132529651 -1.6734322364005314
1.1667822060665112 -0.7994912148406578 -0.8895659825327495 -0.4096158712011522 -1.5774552176631174 -0.030232229798193483 -0.4621537689583865 -2.1975700325403302
-0.2782973540324202 0.07362582129345906 0.4789431471822081 1.0655233126048165 -0.8073410813533137 -0.6507276770498135 0.6876666351002555 -1.2481527286851
-0.46744230188439206 -0.10759208215250758 -1.0845178102861337 -0.45443487075263633 -1.6125163738727375 1.1073190936899477 0.14184122362350138 0.9193888365401848
0.9587737778701156 -1.9320649662013836 0.06261670554700632 0.12594216581304096
00000000: 38d8 e6c1 d095 03c0 8076 a12a 9e90 cc3f
00000010: 9efb bdd1 fbc7 fcbf be00 ee69 e58e f2bf
00000020: 6072 6291 0461 cc3f 08bb 3950 42bc b2bf
00000030: a81d 11c4 6045 edbf 60d0 9ebb 01bb eabf
00000040: e83c bf90 7262 ddbf 78c8 e921 a6cb cb3f
00000050: f85f dedb 505d f1bf f06f 7426 7255 e83f
00000060: 0577 0723 ed0a e2bf 974d 4839 4877 ecbf
00000070: e4e9 7ae2 27d5 d83f fbae 5ddf b03c 00c0
00000080: f4e1 a706 326d f03f 2520 7cf9 7385 00c0
00000090: e661 7f66 93a2 d5bf 8237 1ff1 5def f9bf
000000a0: 146e 036f b301 f0bf aabb 9163 8438 f0bf
000000b0: 1c47 3411 0640 d0bf 60b9 fafb 2abb fdbf
000000c0: 6f63 ef01 bbc7 f8bf 0041 05c0 83f6 bfbf
000000d0: 1c33 cbd7 042b f4bf da89 9af1 063b edbf
000000e0: d715 e338 6b11 f8bf 803d ade6 1c03 8dbf
000000f0: 38d2 45e0 999f 02c0 b691 69a2 1475 fcbf
00000100: 6090 a47b 5aba d23f 4238 91eb 3a55 d0bf
00000110: 3851 e4ae 7af6 babf 5c96 d6e1 2dbe 07c0
00000120: ebb6 896f b4fa eabf 8085 98c2 d34d c7bf
00000130: 8467 217e 0343 c9bf 49a5 e144 8c7b f2bf
00000140: 180a 7606 e23c d8bf 0038 0b99 8b8e c73f
00000150: f326 3de8 e2e4 f4bf 1cb1 81d2 a0ca eabf
00000160: 651f 46a8 708e f5bf a861 3ae1 8cc6 d4bf
00000170: 5ac5 3169 58bb fdbf 241e a134 10aa 00c0
00000180: 90d4 486a 6936 c4bf 7062 b234 f043 f9bf
00000190: 2fc7 1122 c363 c8bf 792d b79a 54a5 e9bf
000001a0: aa9e b05e 5b5b dd3f c1f0 7dda dbc6 f3bf
000001b0: a2ff 1bcf 9f7a b33f a023 a3f6 5311 f73f
000001c0: b5b6 82b4 8dab debf 4513 731d 1d80 ecbf
000001d0: 617c 3ba1 7a5c efbf 6759 d559 d04c ea3f
000001e0: 802a e32d 3923 e7bf 81f6 cbcd 4fb7 e73f
000001f0: 7023 2738 58b1 d73f d795 ce2e 137c e2bf
00000200: a9a4 2ce9 c51b f13f 9a29 83e2 a7a7 fdbf
00000210: b3eb 051a 0264 babf c1ad c888 31fa d5bf
00000220: 12bc cafc 5bf8 e43f 7b09 9e71 0250 f7bf
00000230: d0c5 eee2 e958 e53f 4999 76e1 60c6 fabf
00000240: 31c4 89d1 23ab f23f 07c2 a599 6e95 e9bf
00000250: b097 5314 5377 ecbf d9d0 ae7c 2537 dabf
00000260: 4c48 acae 413d f9bf d8d6 1299 32f5 9ebf
00000270: ef8f d966 ed93 ddbf 6871 e398 9f94 01c0
00000280: 2a7c 88b4 9fcf d1bf 4fb7 984e 24d9 b23f
00000290: 149e 7228 01a7 de3f 5c36 4c2c 620c f13f
000002a0: fa26 a4f6 bcd5 e9bf f1fd 70d9 c2d2 e4bf
000002b0: 73ca 8975 5d01 e63f c4d9 e1fe 6ef8 f3bf
000002c0: 2c11 d71d 93ea ddbf 0f50 279a 278b bbbf
000002d0: 52bc f158 2f5a f1bf 12da 02ff 7515 ddbf
000002e0: 44c4 20f8 ddcc f9bf ac27 da39 94b7 f13f
000002f0: 0002 586c da27 c23f 34ec 2723 a26b ed3f
00000300: 4fdd 8658 46ae ee3f 0d51 39f4 bce9 febf
00000310: 9cf5 81fe a507 b03f a45d ad75 df1e c03f
