NetworksModels/1460789161/filterLayer2_filters.npy (npy, 912 bytes, 1 tensors)

array f8 [4, 2, 13]
-1.4507263594612527 -1.7863699897810772 -0.2202126358061578 -2.0822963311397142 -1.1760628717258275 -2.602235069451278 -0.18387916454907016 1.0434337429957603
-0.3017945385954035 -1.2372176094607714 -0.7918977835139877 -0.39036326967092083 0.3651797255966205 -1.8744757722101968 0.36289925795475586 -0.045865188287222414
0.32821593391267134 0.09542491324863 -0.6823627067647122 -1.6061092830277763 0.27113069253572464 -3.2322317565567023 -3.01081234889654 -0.4196549764075218
-0.5881577111686953 -1.7833020967756004 -0.7912262685612057 0.3892409770740868 -3.1658968585038316 -0.6085257755664677 0.5118918734852511 -1.3462082513584837
-2.849242494589829 -1.2010449728258423 0.6433612544631231 -1.3716790276061221 -2.1595640630296336 -0.11424416570123541 -3.078157974135294 -0.6885793068451462
-2.485288901202411 -0.48369393463209864 -0.3826878877039066 -2.512249802051894 0.07789038896411205 -2.2838875821741462 0.9174447226517244 -0.6973720830091668
-0.8418883524148038 -1.0090248043783174 -0.5586301377633234 -0.8409165269970067 0.8506054507109475 -1.1509414327630743 -0.43187885941252824 0.2250467740994449
0.604484338442644 -1.5076118067489985 -0.1406591547984186 -0.16888252847651805 -0.020719331981385022 2.3051596090694746 -1.391702697154758 -1.0967302711277582
0.8485611138477422 -0.15528045623327705 1.6020644835514453 0.9199872412191703 -1.1030247567107803 -1.3350860192471066 0.11743809480811453 0.04520434915549467
1.0735251431826929 0.4250095586944523 1.4874405615604915 -0.2751419987133201 0.6054688550710922 -0.34752337863138366 0.6723202912136531 -2.338665762954514
0.2470685828330639 -0.1451743701098535 -0.44107241179250317 -0.06269200379736665 0.42646823156764735 -1.6124993056494452 1.560657467021387 1.4915075563036246
-1.5099341968270332 0.6906013299347514 0.21276256299336485 -0.04312979376003176 0.5744633227357543 -0.8436379993881843 1.1674756434245837 -0.9213785438068623
1.1385160307702806 0.5756382186369713 -0.6855153072169257 1.694031811833655 -0.1871493974162235 -0.9177523845672301 -1.079801171027543 -1.6533795165651903
00000000: ae4c d5d7 2c36 f7bf 38a6 cab2 f894 fcbf
00000010: 3809 7a7a ed2f ccbf 5c9b 96fa 8aa8 00c0
00000020: e8a2 414d 27d1 f2bf 5661 be9e 60d1 04c0
00000030: 34b8 133b 5a89 c7bf c45a 9b94 e7b1 f03f
00000040: 183c 580a 9a50 d3bf 82b5 2ab1 a4cb f3bf
00000050: 79f5 3e05 3a57 e9bf 7ef5 3239 b6fb d8bf
00000060: 2062 a6c8 1a5f d73f 2198 ac4e dafd fdbf
00000070: 5022 2acf bd39 d73f 90df 6f57 a47b a7bf
00000080: d895 8b67 7d01 d53f 8062 a061 c46d b83f
00000090: 3210 b250 ead5 e5bf 3c80 c6a5 9fb2 f9bf
000000a0: 487f 588c 345a d13f 8407 bc52 9cdb 09c0
000000b0: 893a e7c8 2416 08c0 8688 d18b a0db dabf
000000c0: 2883 cb1e 30d2 e2bf 82a1 88c7 6788 fcbf
000000d0: 949b 66c0 b951 e9bf 64f6 b2fc 52e9 d83f
000000e0: c843 6ebb c153 09c0 ac97 1a0c 0b79 e3bf
000000f0: 64a2 f610 6b61 e03f 620a d3a9 118a f5bf
00000100: 1c18 25a6 3fcb 06c0 c7fe f4ee 7a37 f3bf
00000110: 40d8 6d57 6a96 e43f 88d6 42b5 65f2 f5bf
00000120: 1ea2 0286 c946 01c0 9013 720b 1b3f bdbf
00000130: 5fa9 b649 11a0 08c0 a645 7378 d708 e6bf
00000140: 8435 be25 dfe1 03c0 e22d a167 d7f4 debf
00000150: d0de 9056 f57d d8bf 1890 996c 1619 04c0
00000160: 6009 46e1 9ff0 b33f 826d 49da 6645 02c0
00000170: 8ca9 f508 b55b ed3f 5c5e 3542 df50 e6bf
00000180: 2e28 90d7 bff0 eabf d285 7a31 f724 f0bf
00000190: 401c 884f 4ce0 e1bf 06c7 c3c6 c9e8 eabf
000001a0: a04a 13ec 2838 eb3f b642 5590 416a f2bf
000001b0: 84ad 403a e7a3 dbbf c2e8 692b 55ce cc3f
000001c0: 71c5 118a ef57 e33f 86ce d08e 2d1f f8bf
000001d0: b700 df82 1e01 c2bf 4f12 5654 f19d c5bf
000001e0: cc22 05d5 7237 95bf ba1b 6885 f770 0240
000001f0: 0a8e 200c 6a44 f6bf 536e 700a 358c f1bf
00000200: b244 14a3 6927 eb3f d96c 9de0 3ae0 c3bf
00000210: 43fc 2e5e 0ea2 f93f 54c1 3815 8970 ed3f
00000220: be04 8c49 fda5 f1bf dc35 6028 835c f5bf
00000230: d961 8148 6c10 be3f 7306 8542 0625 a73f
00000240: 4274 56b3 282d f13f c91f c54a 5b33 db3f
00000250: c756 6a79 8ecc f73f c8b4 8e2f ed9b d1bf
00000260: 67dc 6838 0060 e33f 4d4d 74b2 d23d d6bf
00000270: 0f65 e6d7 a583 e53f f350 4165 96b5 02c0
00000280: b98b 917d f19f cf3f 966b ebe1 1295 c2bf
00000290: ed43 f4c7 873a dcbf 23c8 074a 950c b0bf
000002a0: 8c6c d768 414b db3f a964 6912 cccc f9bf
000002b0: 45d7 d1f6 73f8 f83f a3f9 0007 37dd f73f
000002c0: 04bf a7c2 b028 f8bf 879a d4f5 6719 e63f
000002d0: 6d50 efbc cd3b cb3f ac78 5dbb 1b15 a6bf
000002e0: 90d9 fce7 0062 e23f b31f 211e 15ff eabf
000002f0: 8d29 b6f0 faad f23f d75e 1cdb ee7b edbf
00000300: d414 e295 5c37 f23f a0f3 6bd7 a06b e23f
00000310: 4bee 2ccc bdef e5bf c758 e319 c11a fb3f
00000320: 6834 afee 82f4 c7bf 435a b13f 3a5e edbf
00000330: ccee bb97 dd46 f1bf 6a61 7814 3e74 fabf
