NetworksModels/1460789161/fullyConnectedLayer4_weights.npy (npy, 8240 bytes, 1 tensors)

array f8 [20, 51]
-1.5178453560271716 -2.2483677646801086 -2.0564010253010556 -0.9951057776047002 0.10219349846408665 -1.1748094032681085 0.3787979441113951 0.2626027897205301
-0.6477656282805173 -0.6359281142925338 0.6382066246719396 -1.9427817976011577 -1.1040278375634485 -0.9855426951866421 0.35431801112851335 -1.0902407575285993
0.6536699642171393 0.9615406917605474 -1.28043828569304 0.574656895098552 -1.8462627380178092 -1.0750435129430613 -0.5588376010376547 -0.34369796933784735
-1.051423433103552 -0.8092978195329075 -1.8066663801067417 -0.00522789144537017 0.041385077979405605 -0.9108820202308444 -1.1931200054477766 -1.1493133850773032
0.9954121166406995 -1.1257575509571522 -1.4064811918715678 -2.733268862181105 0.0780621341091563 -0.8999988232321633 -1.6358941829406852 -0.36469152382843517
-1.2416011756450358 0.2689235290085574 -0.6156246455430203 -1.3483873556979347 -0.6379695584738063 -2.7195761897027975 -0.46747787727349965 -0.6392510773265576
-0.7786088297102273 -1.7450760525242188 0.3408873634189542 0.08377914374444034 0.5309626454148895 1.6457262116315248 -0.420561647829911 1.6117878490082005
0.8066891554268331 0.11709970198178504 0.32405118603324856 1.6013486864512085 1.541444619017908 2.94230489545005 0.23985144960283938 1.9963186115656038
-0.2878215004466624 -0.9116635725486201 -0.6440921224913712 2.482743641513612 0.9936244605925737 2.1278070347704054 0.2663517530067856 1.5017888527294772
-0.11882109797989279 -0.8570293202828491 1.7955459721712246 1.5878556301170412 0.8232047288420808 2.649117030127997 1.603977067223106 0.8707393143112774
0.8420055277951516 2.037417727996142 0.40245702750780277 0.24940288710471858 0.4528383777708326 1.6886577585046738 1.0268965805282952 0.27424236352118225
0.02104441504587462 1.7960884028932902 0.6164633296381031 0.8229242405040057 1.1965116352987415 2.0557460360669957 1.789686243024712 2.1212449837655223
1.0309146647426757 0.0904219562940144 1.7830427665397326 1.222754473364722 0.663081424781877 -1.6001231101271156 -1.4565733990656595 -1.051993106614971
-0.09461545679508929 -0.8275610020871963 -1.3730270037238437 -1.039315901765393 1.8017240120928955 -1.1300476213026607 2.5227789499463156 -0.3738220064689495
-1.8056740459795375 -0.47677800987497226 0.3795296500300291 -0.22102106162334514 0.0786791580760903 0.7586825011358067 -0.6468036460340207 1.2887695804955932
-0.23627000714169294 0.9276358429582285 1.41053000547142 1.1343370467157297 -1.9790761618356414 1.4563543723433698 0.01828783257620916 0.8083656780389719
-0.42763094677936575 0.2859525559641272 -0.504163227520653 0.5507387968323866 -0.06076822900029965 -0.1762670144536835 -0.5187424004791599 -0.421598746861801
0.13713937112850624 1.0097355690811476 0.0988055335902782 0.22375723385626836 -0.44514494469602633 -0.38708692154149793 -0.7803008413896109 -1.9364006463185415
-1.9573688710047545 2.1504679833178972 -1.3955229249211691 2.1851567225273105 1.1549765339837335 1.3177834418150907 0.3800108867121992 -2.515452175588902
0.1570146754121779 0.2417517299611968 -0.31513159823851866 -0.8576816951719095 -0.21586541101857598 -0.8875429550077688 -0.3181869670344822 -1.1433945758209805
-2.1566690844036516 0.0392909001546211 1.4683281547961133 0.6772814227293097 0.9407636254791494 0.11388744694560518 0.9704406381726741 1.3585009244757371
0.9855225244351153 -0.3837869260146682 -0.4339100084494291 -0.18719446912566845 -0.6619450858095512 0.248867234288815 0.6024406113308838 0.6250134978253438
1.3086920816940066 1.8602587116833027 -1.683073893302189 -1.0541319062535455 -0.7192685407691581 0.5054523905750485 -0.17312855400665073 -0.6243865927574753
-1.0003276796411869 0.05168334419613689 -1.6120252581621586 -0.7703188376511066 -0.575722347972071 0.1700184030065505 -0.10599485836909664 0.17128465848509664
-0.33063960293884775 0.6238394697337486 0.9858805666428678 0.39631767590983724 -1.5457314941622202 0.06224310842302251 0.6397291260055905 -0.2867670484750098
1.193843372293631 -0.037723433664270736 -0.4717311560054392 -1.6959267271023588 0.5205742974049965 0.1279576648929289 1.7308126935379127 1.6598190920147604
0.7931830586397548 1.6056853878513533 1.8465830565582038 1.3065411557592705 0.3564358861872309 0.6714699615839201 1.683338179338763 1.7864142076549734
0.5258857235505948 2.3603609122735367 1.4521155984491663 0.14013921404336277 0.8531350568318997 1.6457924405412552 2.0123434335138746 0.5380514631205734
1.0805647294372869 2.114509676107184 3.4237717331529858 0.7787053119677458 2.2729237627457684 1.1441696021621164 1.3084757517864625 0.5275414773859168
1.5306549000247531 0.5847005851373894 1.9082440652677386 -0.5513143577578048 1.6831333151747667 2.798090308437752 1.4099378741094057 1.2956756189407506
-0.5824432850882639 -0.0723439090712037 2.69380435045512 1.365364898044957 0.14778026140525513 0.7507774467418888 0.36041384849174574 0.09459890640655888
1.0959509448176077 1.0370294264465436 -0.04536087801382527 -0.43387540927479784 0.456633144058972 0.20263395004083218 0.10151016405990484 -0.08612366738435384
00000000: d85a 4836 1849 f8bf 1a74 153d a8fc 01c0
00000010: fe07 7961 8273 00c0 47ee 5b12 e8d7 efbf
00000020: 405f c465 5a29 ba3f e81d e1f1 04cc f2bf
00000030: d407 70bb 393e d83f e008 6cee 7bce d03f
00000040: c201 9efb 7eba e4bf cbc9 afea 8559 e4bf
00000050: 12cf a14c 306c e43f 8460 bf5d a215 ffbf
00000060: 7956 0318 19aa f1bf 276d 94d5 9089 efbf
00000070: 1091 8b73 25ad d63f 27a0 e54a a071 f1bf
00000080: 5415 d645 ddea e43f 0450 1cfc f0c4 ee3f
00000090: 0c91 19db ac7c f4bf 5ad0 5bdb 9663 e23f
000000a0: 2dc2 f9cb 4a8a fdbf e0e0 9dd3 6033 f1bf
000000b0: 176b 8764 ffe1 e1bf 967d 80c4 25ff d5bf
000000c0: 44d8 b660 a1d2 f0bf 3ac6 738a c4e5 e9bf
000000d0: 6575 9501 1be8 fcbf 80f6 8e6c d769 75bf
000000e0: c08b edc8 6c30 a53f 07fd ec0c f225 edbf
000000f0: eb9f b900 0517 f3bf 7231 9c6e 9663 f2bf
00000100: 3672 e082 6ada ef3f 5960 8959 1a03 f2bf
00000110: 9470 186c f280 f6bf 9ef1 b110 bcdd 05c0
00000120: e006 0e49 e1fb b33f 5f0f 0755 cacc ecbf
00000130: 7026 f760 9f2c fabf 9c2d fe1d 1b57 d7bf
00000140: 1921 c131 99dd f3bf c8dd 8d08 0b36 d13f
00000150: f000 e774 32b3 e3bf 3300 b19e fe92 f5bf
00000160: 44a2 af22 3f6a e4bf cc07 4e29 b1c1 05c0
00000170: 4e90 9f54 28eb ddbf 529c e1ac be74 e4bf
00000180: ab6e 7f10 5dea e8bf 20fd e9dd d4eb fbbf
00000190: c442 603b 19d1 d53f 0c21 78ca 8c72 b53f
000001a0: 0a8c ae5f a5fd e03f b909 1202 e554 fa3f
000001b0: d467 d866 7bea dabf 5949 390e e2c9 f93f
000001c0: 5313 93c6 65d0 e93f b413 62fe 3efa bd3f
000001d0: 468a 8f2f 41bd d43f d8ce dccc 1f9f f93f
000001e0: fb6e 34d5 c1a9 f83f a08c 2626 d789 0740
000001f0: 26a0 f8c9 73b3 ce3f 5720 d1c8 ebf0 ff3f
00000200: 9742 e0de aa6b d2bf 89a0 a115 592c edbf
00000210: f6c5 3615 679c e4bf 2a39 c5b2 a8dc 0340
00000220: 1a06 5886 c5cb ef3f 0f4d d4b1 bf05 0140
00000230: d85e 1939 e80b d13f 0687 7fbf 5307 f83f
00000240: e600 e639 0f6b bebf 897e cac0 c86c ebbf
00000250: fa09 cf69 8eba fc3f 63f4 214e db67 f93f
00000260: d341 8971 b157 ea3f 4169 fd44 6431 0540
00000270: a11d 74db e3a9 f93f 6cde c9b1 18dd eb3f
00000280: fdcd 9d93 b5f1 ea3f be45 70aa a14c 0040
00000290: a83f cc1e dbc1 d93f 8445 d20d 6fec cf3f
000002a0: 1690 b9d1 4dfb dc3f baa0 6eff bd04 fb3f
000002b0: 63e4 db1b 2b6e f03f 0214 a0d7 2f8d d13f
000002c0: c0bb 8ac9 aa8c 953f c36c 7231 c7bc fc3f
000002d0: 5153 ff4d 11ba e33f 699c 8137 6555 ea3f
000002e0: e343 6e62 e924 f33f a850 4efa 2a72 0040
000002f0: a446 be0a 8ea2 fc3f a29d 404a 4ff8 0040
00000300: e695 2060 a07e f03f a885 1fb1 e425 b73f
00000310: 2e85 1ada 5787 fc3f 193a a2fe 6690 f33f
00000320: 6ebe 4089 f637 e53f c51d b9b0 1a9a f9bf
00000330: 795e 93e8 1f4e f7bf ba75 48b9 f6d4 f0bf
00000340: d689 a1f4 b738 b8bf 971a ed35 617b eabf
00000350: eb4c d829 ebf7 f5bf c7b8 04b6 09a1 f0bf
00000360: d7b5 c58e dcd3 fc3f 2aae 86d0 ac14 f2bf
00000370: 0374 e8ba a62e 0440 90ca 1323 b3ec d7bf
00000380: 657d eb77 0ae4 fcbf af5b f7e9 8783 debf
00000390: 7771 afba 364a d83f c521 b30b 6b4a ccbf
000003a0: 8a49 d03a 5124 b43f ee9f 4d86 2047 e83f
000003b0: 2cca 548f 9db2 e4bf 70ee 04da cc9e f43f
000003c0: 4681 d978 183e cebf a44b 035d 31af ed3f
000003d0: 576c 38e9 8791 f63f 8590 649a 3e26 f23f
000003e0: 5a09 f6c3 4baa ffbf 419f 093e 3a4d f73f
000003f0: 6673 51ab 0bba 923f 285c ccb2 21de e93f
00000400: 7031 cb30 4e5e dbbf d1b4 04f3 0b4d d23f
00000410: 1f81 c1eb 1a22 e0bf 5712 21f8 a69f e13f
00000420: 4f5e 6268 031d afbf b797 38e3 ea8f c6bf
00000430: aa68 a3a9 8999 e0bf cc95 734f 79fb dabf
00000440: 27d7 fe6c c88d c13f d0fb ec7b e027 f03f
00000450: 7f1f 6fc7 514b b93f f9fa d3b8 13a4 cc3f
00000460: 11bf dc38 417d dcbf 2ab9 2e39 08c6 d8bf
00000470: c0e8 5978 39f8 e8bf 2b43 7e3e 7ffb febf
00000480: 25c8 7205 6251 ffbf 4490 db8e 2834 0140
00000490: caac b5d8 0f54 f6bf 611d 9f72 337b 0140
000004a0: 99b8 91ac c87a f23f ece5 1c17 a415 f53f
000004b0: 0062 a32e 1952 d83f 7973 e663 a51f 04c0
000004c0: fe94 f18f 0e19 c43f 55a6 f77e b8f1 ce3f
000004d0: b6b8 17b9 1d2b d4bf a684 e4e1 2072 ebbf
000004e0: eec8 5450 7aa1 cbbf d1b6 b17b c066 ecbf
000004f0: 494c 5bde 2c5d d4bf ce32 591c 584b f2bf
00000500: ad76 8eb8 db40 01c0 5e95 63d6 ef1d a43f
00000510: 4853 caa9 457e f73f 8df1 1917 4aac e53f
00000520: fc60 9651 bc1a ee3f 4a6a 0e4c ba27 bd3f
00000530: f326 7586 d90d ef3f 4c58 2377 6bbc f53f
00000540: 2072 7d88 6689 ef3f 3f62 f709 f78f d8bf
00000550: e7a1 ec7b 2ec5 dbbf 9283 7105 fdf5 c7bf
00000560: 1499 e975 a72e e5bf c980 28ac e1da cf3f
00000570: 3c59 6e88 3147 e33f 49fd 964e 1c00 e43f
00000580: 078f b61b 67f0 f43f 4976 8ca3 9ec3 fd3f
00000590: acbf 07e4 deed fabf 4277 f06a b9dd f0bf
000005a0: 4aa5 7475 3f04 e7bf 268e e67d aa2c e03f
000005b0: c82d bb92 1329 c6bf 0789 7e97 f9fa e3bf
000005c0: ba7a d598 5701 f0bf e600 2442 3d76 aa3f
000005d0: 6d1e 42ff daca f9bf 1b89 e6b0 73a6 e8bf
000005e0: 5cb9 0346 516c e2bf ddcd 50bc 29c3 c53f
000005f0: c24a 3da2 7a22 bbbf 9f00 40db a7ec c53f
00000600: 2ea0 5802 3329 d5bf dcbb 0e31 7ef6 e33f
00000610: 32c7 ef66 558c ef3f b001 37d0 445d d93f
00000620: e72e 7df2 50bb f8bf 3212 2826 54de af3f
00000630: fdc3 4f37 a978 e43f bc51 b12d 645a d2bf
00000640: 8dc2 0882 fb19 f33f 2a01 c363 7c50 a3bf
00000650: 750c e3df d730 debf 3812 5510 8422 fbbf
00000660: b0c3 cf6d 8ba8 e03f 8b6b feb0 ea60 c03f
00000670: bcf3 a3a6 68b1 fb3f 4ead d776 9e8e fa3f
00000680: fc2a 1370 c161 e93f 45c9 4729 e3b0 f93f
00000690: 463e d4ac 9a8b fd3f 64d3 edb2 97e7 f43f
000006a0: 36e0 9276 d8cf d63f 60fa a792 ae7c e53f
000006b0: 06e4 c503 f4ee fa3f 4ace 6f10 2795 fc3f
000006c0: c5a8 024c 0ed4 e03f c4c5 e7e6 04e2 0240
000006d0: 369c d590 dd3b f73f 9608 9aee 14f0 c13f
000006e0: 6540 05e4 e14c eb3f 380f 4274 2a55 fa3f
000006f0: 7b19 9a83 4719 0040 b95e b5b3 b737 e13f
00000700: ca4e e23d fe49 f13f b3a5 8f0c 84ea 0040
00000710: f8e3 366f e263 0b40 2cef 0367 27eb e83f
00000720: ce5a 5aa7 f22e 0240 64d1 e5c8 844e f23f
00000730: 8a82 1845 84ef f43f 40fe 14aa 9ee1 e03f
00000740: 6e18 11fe 8f7d f83f b4bf 6300 deb5 e23f
00000750: c4c6 d1ed 2a88 fe3f 0c52 0c02 5ea4 e1bf
00000760: 2bbd f732 1dee fa3f 24f5 ef2b 7d62 0640
00000770: 0d11 2b04 1b8f f63f 8933 995b 16bb f43f
00000780: 2253 a719 60a3 e2bf e08e 8663 2185 b2bf
00000790: d637 984b e98c 0540 f859 03dd 88d8 f53f
000007a0: 6c6d ddae 76ea c23f de95 8a6c 5e06 e83f
000007b0: 020b 133f 0511 d73f b0e7 4049 a237 b83f
000007c0: d930 a0db 0389 f13f 9d3d f92a ac97 f03f
000007d0: c0a8 2c7f 8a39 a7bf 84ed 575d 9dc4 dbbf
000007e0: 3130 0039 7a39 dd3f bc09 3ec6 e8ef c93f
000007f0: 9650 d9f2 91fc b93f 48cf d35e 330c b6bf
