NetworksModels/1466280861/filterLayer0_filters.npy (npy, 2384 bytes, 1 tensors)

array f8 [1, 12, 24]
000000 86 97 a0 79 44 8b 67 3f 34 55 75 42 61 00 85 3f
       0.0028740250973155494 0.01025463089050991
000010 36 0a b8 af 75 d6 46 bf ed 96 60 9e 78 c0 8c 3f
       -0.0006969523087153099 0.014038984616557804
000020 a8 c4 c3 29 61 28 97 3f 1f 57 56 cb 18 a5 61 3f
       0.022614973234287433 0.0021539196265604322
000030 ed a7 08 57 86 fe 98 3f 58 fb 9d 9a e1 40 8b 3f
       0.024408434927103363 0.01330734494308465
000040 4d 27 39 b0 00 a2 46 3f ae 7b ab c6 55 f6 91 3f
       0.0006906989442054618 0.017541256190152836
000050 d8 a1 5f f1 84 76 8c 3f 1a 2e 4d 3a c1 7c 85 3f
       0.013897932640205932 0.010491857139320483
000060 39 78 05 bc 39 95 8d 3f 95 0d f9 ed 8b 8e 62 bf
       0.014444781351525037 -0.002265237140621055
000070 61 85 5c 01 4f 74 98 3f a4 ad 2d 43 1e 63 82 3f
       0.023881182153791317 0.008978115487216005
000080 42 b7 a4 a8 72 d3 9b 3f 91 07 75 b4 f2 8b 94 3f
       0.027173797171762056 0.02006510950491919
000090 7a 84 6c 2c 2c d8 96 3f 9b 4a fd 93 31 31 7e 3f
       0.02230900784627863 0.00737113348425802
0000a0 aa 50 0f f2 13 05 96 3f 78 1c e9 0a fa 29 9a 3f
       0.021503745698127 0.025550753513269048
0000b0 9b 98 86 7a ab 6c 98 3f b3 94 9a ea 0b cd 9d 3f
       0.023852042535189893 0.02910250300796653
0000c0 58 fb db ff 11 b2 91 bf 9d 8f 59 b8 01 09 9e bf
       -0.01728084682599315 -0.029331232907125238
0000d0 46 7b 40 9a 62 5b 77 bf 64 4e 5e 73 ff cf 9a bf
       -0.005702386060902514 -0.02618407384541256
0000e0 c5 92 f7 1e 52 1b 95 bf 4a 5a 6a 92 6a 69 98 bf
       -0.020612033023911253 -0.02383963125847747
0000f0 26 65 70 1f 54 c5 92 bf 2a 6d f3 c6 c6 62 9c bf
       -0.018330873888861586 -0.027720552342413253
000100 f3 c1 60 61 61 5c 89 bf 88 43 00 29 5a 42 64 bf
       -0.012383232864608273 -0.0024730454388265967
000110 19 57 8c b2 9e e5 77 bf d6 d4 be e4 7f 40 43 bf
       -0.005834216987542517 -0.0005875229339752607
000120 74 2b 2d ee 54 8d 8c bf 7d d2 ef 1d 28 0e 61 bf
       -0.013941443937843558 -0.0020819457563397412
000130 8e 1b bc 6e 7a a3 72 bf cb 97 09 0c 24 3f 95 bf
       -0.004550436260393987 -0.020748675570210467
000140 db b6 51 7a c3 03 6a bf a8 e0 d8 37 87 bf 5a 3f
       -0.003175622742267998 0.0016325779428268215
000150 91 35 34 92 3e 2a 56 bf ad 7a e7 5e 93 c7 68 bf
       -0.0013528452917087356 -0.003024852593838409
000160 97 f3 3c 7d 51 ef 5b bf 4f 73 26 05 c7 b6 7d bf
       -0.0017050071518973414 -0.007254388258300561
000170 86 6f 27 70 0b 74 23 3f 0e 8d e0 f8 b5 5f 90 bf
       0.00014841689706101782 -0.015990107836967353
000180 b4 f5 e5 32 ee 97 b5 3f e9 af 8c 9e 1d 7f b6 3f
       0.08434952490457343 0.0878771316608319
000190 0d ab 5f 0b 7c 68 b6 3f 9c a0 84 e6 60 cf b8 3f
       0.08753180768659892 0.09691434505350788
0001a0 eb 12 9c 6a 1d bd b1 3f bb 63 2f f3 54 c4 b1 3f
       0.0692919144895076 0.0694020360673581
0001b0 f2 b0 b9 aa f7 cc ad 3f 8e 96 01 e6 cb 4a ae 3f
       0.05820440253305205 0.05916440184300341
0001c0 7c ab 4b 9b 53 90 ac 3f 1c ff 10 85 59 0b a8 3f
       0.05578862448404373 0.04696159123750318
0001d0 f0 c7 af a5 25 fd a6 3f 26 57 63 35 a3 9a ad 3f
       0.04490010879079864 0.057820415751548546
0001e0 ab 6c 8b a1 3f 17 a6 3f 23 51 f4 aa 47 f9 a0 3f
       0.043146122426798904 0.03315185510487797
0001f0 75 67 45 a3 d0 70 9c 3f 56 c8 6b c4 9c 48 9f 3f
       0.02777410503890772 0.030550431717479697
000200 16 07 ab 91 75 ad 98 3f 64 75 35 25 f7 bb 9c 3f
       0.02409919454181083 0.028060781141325278
000210 5c b0 5e 48 71 43 91 3f dd f9 0f ab 90 69 94 3f
       0.01685883526049313 0.019933948937245084
000220 8a 72 25 67 24 79 94 3f 40 69 f7 56 fc aa 8d 3f
       0.019993370814847235 0.014486285594945358
000230 2e 70 80 20 95 76 72 3f b4 c8 73 ea 9f cb 6a bf
       0.004507620360552562 -0.003270923934558823
000240 5e 51 08 50 73 cb ac 3f 90 4e 99 62 cb 25 b2 3f
       0.0562397036739266 0.07088919789503678
000250 ee f2 a5 a6 ba 06 ac 3f 73 99 db 70 1d bf aa 3f
       0.05473883899955988 0.05223934176119629
000260 80 98 b8 91 f0 0b af 3f 49 8f a7 f0 5d 7e ab 3f
       0.06063796786138287 0.05369847834279413
000270 fd b5 31 5d 46 a0 a4 3f 88 50 4f 8f 1a ed af 3f
       0.040285300136797965 0.062355833047747444
000280 71 f1 bd 3a 18 ca a8 3f c0 a3 74 57 da 48 a7 3f
       0.048416859789514606 0.04547769849370509
000290 93 88 a0 13 7d 42 a7 3f e3 f0 86 1c 1b 02 a5 3f
       0.04542914261425426 0.041031691772760025
0002a0 ad c1 db e3 11 14 9f 3f 84 f0 6e 19 ea 7f a2 3f
       0.030349998028158676 0.03613215980973997
0002b0 10 b5 d2 8e cc 83 ad 3f fb 5b 44 a4 8f 57 a8 3f
       0.057646171984155115 0.04754303817951918
0002c0 f2 07 5d 70 d9 cc a8 3f 53 e3 80 c7 d5 01 a6 3f
       0.04843787666915479 0.04298275051446034
0002d0 21 4d 43 87 1f 41 a7 3f 73 93 9c 8d 44 0c 9f 3f
       0.045418725263198796 0.030320235389030125
0002e0 6f 49 86 c4 cf 66 a3 3f 42 0a 9d bc bc a8 a2 3f
       0.03789376520139142 0.036443613075352946
0002f0 6a 09 6f ae 42 51 8a 3f a7 3c 32 e5 47 93 98 3f
       0.012850304554267129 0.02399933182146854
000300 b1 e1 a2 2e 43 a8 7a bf bc d7 ce 18 cf a9 8e bf
       -0.006508123808253095 -0.0149723224111361
000310 d2 9c 31 fa 1d 07 a2 bf b8 d2 97 70 1e bc 90 bf
       -0.03521054915545964 -0.01634261667455192
000320 43 c1 9a d7 15 00 84 bf 05 92 7e 4c 1b 7b 74 3f
       -0.009765787737109682 0.005000216136896278
000330 8e dd 14 14 1e 82 86 bf cd 59 fb 75 b2 b3 77 bf
       -0.010990366924132269 -0.005786606896171565
000340 4a fd ee 2c e6 5c 6e bf 18 86 e3 e6 aa 27 93 bf
       -0.0037064071288736332 -0.018706007330257263
000350 59 0b b7 44 e1 5c 69 3f 12 05 79 8a 72 24 83 3f
       0.003096046426180815 0.009346861697056261
000360 17 11 52 45 c1 a3 83 bf 20 6d bd 6a 3e b0 8e bf
       -0.009589681556697855 -0.014984595901913311
000370 c5 9e d4 28 42 58 8f 3f 92 91 6e 03 4e b4 7f bf
       0.015305058356332233 -0.00774031137453725
000380 8f 28 3c 80 ce 3f 63 3f 25 ac f9 35 d2 24 34 bf
       0.0023497613163999185 -0.00030737049198731526
000390 3b bf 8b c6 38 fd 81 3f 45 a7 72 99 2c df 8c 3f
       0.008783763465060814 0.014097546036584094
0003a0 8c 6b de a0 1c eb 65 3f 77 29 33 fe bd 9b 6a bf
       0.0026755866192166907 -0.0032480917740020337
0003b0 84 db 5b de 01 af 85 3f 72 f6 03 89 45 51 82 3f
       0.010587706182816133 0.008944075816994277
0003c0 3b 1c 55 2f 29 dd a6 3f c9 4a 6f fb f5 b4 ae 3f
       0.044656073596847944 0.059974371855465565
0003d0 74 07 80 1f d3 8c a3 3f a5 e5 68 4d 6f 51 ae 3f
       0.03818378219149468 0.05921504802649772
0003e0 af ab 9a ed d5 24 ae 3f e3 88 0f b4 6c d9 ae 3f
       0.058874783758560915 0.06025256822592142
0003f0 98 07 5b 2e ad 14 ab 3f 55 13 b5 1c ea 90 a0 3f
       0.05289212408889837 0.03235560989791134
000400 b0 6e bf f6 58 79 ae 3f 07 1a fb af 00 ad a7 3f
       0.0595195580678739 0.04624178074077539
000410 91 4f 70 60 96 c1 ab 3f 0c 98 b3 a8 77 0b aa 3f
       0.05421132971983334 0.05086873945565182
000420 7d 19 ba 34 ba 8d ab 3f a6 f0 ed bb 9e b5 a7 3f
       0.05381566899909538 0.04630752605496129
000430 38 33 29 a6 47 96 9a 3f 23 a8 e8 05 1a 0b a9 3f
       0.025963897244128037 0.048912823888102495
000440 dc 45 95 6a c6 14 9e 3f 49 58 51 83 c9 ce a0 3f
       0.029376125579181664 0.03282766082763595
000450 3c d7 1f 4d 89 61 a0 3f b6 04 7c ba 24 11 75 3f
       0.031994143166157646 0.005143302412535513
000460 7e cf 00 95 c7 ea 92 3f fa 9f f5 c6 ad be a1 3f
       0.018473738164359592 0.03465788892464157
000470 2b 26 ac 66 8e e0 95 3f 4c 81 79 30 7c c0 a0 3f
       0.02136442662871311 0.03271854488116563
000480 ce 72 de ae 8d 73 94 bf 99 17 23 5b 61 72 90 bf
       -0.01997205142798713 -0.016061326205793234
000490 5f 8b 80 de 2a 80 40 3f 8e 1b 21 e2 49 53 8c bf
       0.0005035600015655775 -0.013830735410136599
0004a0 1a e7 50 8a 3a 32 87 3f 8f 1b d7 6d bc 1a 63 3f
       0.011326272340841426 0.0023320846800944438
0004b0 a5 2f 5c 6a 21 bd 64 3f 2a 01 24 7d 9e 4a 6a bf
       0.0025315907140619092 -0.0032094092831586223
0004c0 d4 ba f9 0d ce 5c 81 bf 88 7e a3 cd f5 84 76 3f
       -0.008477792550562503 0.005497894448324943
0004d0 aa b8 3a e1 44 c2 60 3f bd d8 2c f9 d6 1b 2f 3f
       0.002045759707320978 0.00023734091936384273
0004e0 c8 9c c0 c1 f8 56 95 3f 88 75 4d 1d 2e 41 6e bf
       0.020839583230693376 -0.0036931896851643588
0004f0 cd a7 ee 5b 71 27 6e 3f 07 0d c6 2a 4a f7 89 3f
       0.0036809171719669243 0.012678698950145518
000500 ae 48 92 aa 2f 39 8c 3f 10 62 5a b5 3e a7 8f 3f
       0.0137809490136401 0.015455713185745373
000510 73 a4 15 94 9f 43 8d 3f cd 39 8e 08 4d 8c 87 3f
       0.01428913756054071 0.011498071502299556
000520 60 e2 57 d3 65 9e 8e 3f 93 c4 63 4a c3 9d 80 3f
       0.014950557243524176 0.00811340876359371
000530 01 18 24 ae a8 f7 94 3f f8 50 d3 f9 e4 a8 96 3f
       0.020475993756029712 0.022128656147132525
000540 22 4e cd a7 10 49 a7 3f ec 36 05 47 3b 69 ac 3f
       0.0454793171726602 0.05549035303066127
000550 a4 d3 ca 8e f4 04 a9 3f 3e cc 9b ac b2 b0 a3 3f
       0.04886593096799821 0.03845747334516901
000560 5e 17 f7 f6 31 17 a9 3f 8f 8a 81 87 20 75 a7 3f
       0.04900509013854902 0.04581548360944964
000570 58 48 ab f9 bd 57 a8 3f a9 e5 b7 d9 75 55 a4 3f
       0.047544419028455465 0.03971451075262717
000580 7b be 8a 48 bd 9d a0 3f 56 a9 f7 ab f6 54 a8 3f
       0.03245345602533419 0.0475232205315758
000590 27 8d d4 61 b2 fb 9d 3f 24 61 67 04 6f bf a1 3f
       0.029280459614836076 0.034663647925926605
0005a0 5c 27 5d a9 a4 d9 a4 3f 8f cc 02 6b 44 ba 9c 3f
       0.04072298591070364 0.02805430319922358
0005b0 fa 92 7b 76 50 05 95 3f 88 2f 29 17 8d 06 8e 3f
       0.020528084975825124 0.01466093279773141
0005c0 bf 4d f5 fe ce df 9b 3f e6 3b 1a db 02 10 95 3f
       0.027220949469961783 0.020568890212015044
0005d0 e0 13 d5 03 a8 e7 a0 3f b9 7f 92 c4 9a 14 9e 3f
       0.03301739737302234 0.02937547516614789
0005e0 88 0f 75 28 cb 3b a6 3f 00 00 02 7b 68 67 8f 3f
       0.043424938858634354 0.015333954099560287
0005f0 61 32 2b 8c 5e 17 a0 3f fd 23 e2 8a 6b 71 84 3f
       0.031428293810311876 0.009981956649669494
000600 2c 16 a7 2a 1e c0 a8 3f 30 bf 0a cd 42 5a a8 3f
       0.04834074278509734 0.04756363633111815
000610 49 4b 10 52 7e 77 ab 3f 1d 00 3e fe 96 7d a5 3f
       0.05364603759530568 0.041973799262450685
000620 c1 9f 44 3d 00 9d a6 3f 41 c0 66 8a 7f 3b aa 3f
       0.04416657207394748 0.05123518528432714
000630 5d 9d 8d 2f c7 02 a3 3f d8 74 87 94 4e da a4 3f
       0.03713056998713669 0.04072804988002482
000640 5e af b7 32 2b 12 a5 3f 44 7c d5 1e 0b 92 a3 3f
       0.04115424150572154 0.038223598016650345
000650 2d f1 4d 27 e7 fb a1 3f 91 f6 90 30 61 ea a3 3f
       0.03512499193945682 0.03889754979944116
000660 e7 be 13 9b 2d 35 a0 3f 7d 65 ea b4 61 11 a2 3f
       0.03165571706801789 0.035288861593651945
000670 e7 a0 d9 7e c2 78 9a 3f be 14 9c 9f 96 f4 92 3f
       0.02585128688079488 0.01851115559749838
000680 8e f7 fc bc d1 e6 92 3f 4a 82 dc d8 e2 73 9d 3f
       0.018458630714341555 0.02876238297096937
000690 67 e4 4e 43 9e b6 97 3f 6d 2e 4d 36 61 d5 8b 3f
       0.023157570703663668 0.013590583295488312
0006a0 f0 cd a5 9a f2 ab 98 3f 29 dc 6c 50 34 40 8d 3f
       0.024093428315110132 0.014282616333373426
0006b0 c8 c4 1a 56 fa a6 98 3f c3 b8 14 5d 4f 32 8f 3f
       0.024074470048337543 0.015232677486519802
0006c0 d2 81 9b 84 70 f7 ac 3f e7 cb 19 69 87 a4 a4 3f
       0.0565753137468651 0.04031775625198702
0006d0 c7 64 d1 61 fd 53 aa 3f b8 52 36 79 e8 08 a7 3f
       0.05142204112116527 0.04498983840600118
0006e0 c3 f6 02 da a3 13 ad 3f 73 39 a0 f1 d2 c3 a0 3f
       0.056790466654530934 0.03274401855024935
0006f0 a3 93 71 07 f0 28 a2 3f 57 49 bc 14 81 c1 a5 3f
       0.035468579205179006 0.04249194505804848
000700 3d 39 5f c0 95 88 a5 3f 8d 1f f8 66 4f 80 9e 3f
       0.04205768559733023 0.02978633943533242
000710 de 8a cf 36 e7 cb 9e 3f 1e ae 29 06 05 e3 a3 3f
       0.030074703903561033 0.038841397287651555
000720 0f 2e f9 21 ee 4e a0 3f 89 8f 9e d0 dd c0 a6 3f
       0.0318521896811853 0.04444020434973967
000730 74 8d d9 ed 9d 67 a5 3f 1c 8f 8b df da 3f 95 3f
       0.04180615929069634 0.020751399892915065
000740 de 25 24 c7 df c8 86 3f b1 9c 38 31 18 29 93 3f
       0.011125324501807417 0.018711450580806758
000750 fc 4f 36 a4 f4 22 96 3f 10 c7 23 29 f2 e1 9b 3f
       0.021617720148768158 0.027229102860423515
000760 40 1f 47 71 32 dd 95 3f cf bd e9 6e 5d cf 87 3f
       0.021351612247399787 0.011625986048982377
000770 e6 75 21 4e cd 57 99 3f 7f 2f b7 88 e3 57 97 3f
       0.02474900044795971 0.02279620668359383
000780 05 20 20 d7 13 57 99 bf 03 05 d9 8a b6 cd 95 bf
       -0.02474623680612355 -0.02129254553279215
000790 85 ab 34 9e 35 44 8c bf 60 ee 4e 18 4e cd 6f bf
       -0.013801974192195985 -0.0038820767681196217
0007a0 47 80 ed a8 74 4d 8e bf a6 36 10 13 df 3b 87 bf
       -0.01479617252852007 -0.011344664353625088
0007b0 20 da 68 bc 9d 22 96 bf af b5 a9 38 22 e6 5f bf
       -0.021616425156219532 -0.0019469579880494294
0007c0 60 13 38 d6 53 ff 33 3f df 62 bb 9a 9f 90 58 bf
       0.0003051356963797349 -0.0014993246685916434
0007d0 63 f1 01 51 16 67 56 bf ac 82 4b 37 54 af 6c 3f
       -0.0013673513349479964 0.0035015721172018868
0007e0 3b ae d7 45 c5 48 7b 3f af c5 3d 3e df 84 71 bf
       0.00666119632431222 -0.004277107280232269
0007f0 de 1e bd da d5 55 f4 3e a9 ee 23 da 20 2d 52 3f
       1.939324799529642e-05 0.0011093922444719662
