NetworksModels/1466280861/fullyConnectedLayer3_weights.npy (npy, 880 bytes, 1 tensors)

array f8 [1, 100]
00000000: d7c1 6adc 6a83 a4bf a61d 62a1 2e9a a53f
00000010: 8869 970c deb0 a2bf a513 81f7 4af1 9a3f
00000020: b270 1e84 b719 a9bf 036c 8cd2 fda7 aa3f
00000030: e8b7 6ad4 0ad7 a63f 7d8a a24a 1136 a1bf
00000040: 881f 6049 3e93 a63f f935 40ff 9540 a6bf
00000050: 47b5 8ec4 740f 9cbf c87e a91d 58a7 a63f
00000060: 77ce 37d0 90c1 a43f 3a94 f255 ee8d a63f
00000070: efd0 c9d9 db24 a5bf aaab 017a 36b4 ac3f
00000080: b31e 490a 34e3 a83f e61c 6330 9cb9 a63f
00000090: 767b c121 1fb5 a0bf 1340 b43d 0b94 a2bf
000000a0: 5c55 bf7e 5bc3 a73f dd95 34fc e040 a43f
000000b0: 92f2 5fe2 9716 a3bf 9894 165a 6264 a0bf
000000c0: 36f1 e4a2 aa05 a23f 90eb 9098 0dce a0bf
000000d0: 6dbf 5a85 95f4 a1bf 3cd4 96cb 1e26 a53f
000000e0: de0c e68f 643e a43f cd40 a00b 72da 95bf
000000f0: fdbd 9f8e ef91 a63f 8d3e b820 0402 a43f
00000100: 42a9 6c00 11b2 a63f 9b25 2d39 0d17 a2bf
00000110: 8343 f30f d1f4 a03f 2f89 43d6 8d9c a1bf
00000120: 3fbb 45f4 900d a03f e4d6 d771 beac a7bf
00000130: b6e9 7e7a c375 abbf 4cd7 39c7 e33b 9c3f
00000140: 5e1f f221 f2f5 a73f 7fd9 04f5 6d9e a53f
00000150: cafa 93c9 1525 a3bf 4c8b d16b 6260 a4bf
00000160: 8f10 c7e2 0ef8 acbf c520 8c43 fc40 a2bf
00000170: cf86 cdd3 3666 a3bf 886d 4c22 2dbd aa3f
00000180: d367 403d 9c9f a13f 114d cd22 42f1 a1bf
00000190: 04ff 3bbc 2ca8 a23f d860 bb17 8330 a2bf
000001a0: ccc6 21ed 138c a53f 00b0 ed05 bc04 a3bf
000001b0: 5859 fa83 924d a2bf bd7f 99f2 ee29 a2bf
000001c0: 5ebb a26e a144 a03f 74ac 01fc 5591 9f3f
000001d0: 41e8 217d 8be2 a2bf 9fcb 5057 7dc2 9ebf
000001e0: 12ee 18bb bb70 a3bf de21 9ff7 6fd4 a2bf
000001f0: 42d4 fca0 db3e 9f3f 2078 e8fb 06f0 a53f
00000200: 215e 4c3a 7670 a2bf 445f e273 e3ff a7bf
00000210: 2db6 ff23 bbda a33f 216b 1890 6508 a9bf
00000220: c990 a8ac c1c3 a43f d00a 82fd 0470 ad3f
00000230: c64a 56ea 695e a13f 0221 9146 0722 99bf
00000240: 2fbf 5f32 8685 a33f 0e54 7628 3c91 9abf
00000250: 1b64 4b58 1e17 ad3f 3527 c9f3 8af3 a73f
00000260: 4b03 4397 66c3 9f3f e277 f566 2674 81bf
00000270: 3b7a fa3d 5925 a23f 2dbb a1fd d848 a1bf
00000280: 397a dc73 9b53 a4bf 007c 834a b22b a43f
00000290: 53af c74b 284e a3bf 8653 2992 4ad1 a33f
000002a0: 3d1d 901c 6bfa 69bf 08ed 3c19 a922 a83f
000002b0: 74e2 a443 df8a a83f b787 e689 298c a63f
000002c0: 022c 8e92 1e82 a63f 5a0b 7c7a 5be7 ad3f
000002d0: ad94 9a3e e256 a3bf 726d cdad 408b a63f
000002e0: bf5a 5282 4973 9d3f 353d d37c 1389 9fbf
000002f0: 30e5 4191 6065 a9bf 0722 30d1 cf34 ab3f
00000300: 51af 9e5c a085 a3bf 5e7d f968 6fe8 a73f
00000310: 7680 72da 725e a53f 290b e905 1be1 a63f
-0.040065135389685196 0.042191941452127055 -0.03650564101890824 0.026311084133584867 -0.04902432906894329 0.05206292338535692 0.04460939257602076 -0.03361562763281698
0.04409212728211204 -0.04346150151114254 -0.02740271043483247 0.04424548494421071 0.04053928891871988 0.04405159758724904 -0.0412968352656281 0.05606241454446288
0.04860842347676222 0.0443848427835805 -0.03263184821184144 -0.03628573539947424 0.04641233370026995 0.03955748633078902 -0.037281748183862665 -0.032015870568366356
0.03519948233085517 -0.03282206046465952 -0.03506915333616587 0.04130645976275857 0.03953851944518204 -0.02134111591300396 0.044082151565699924 0.039077881807426974
0.04432728891545647 -0.035332120160613566 0.03311780280785739 -0.034397537617922296 0.03135350210037879 -0.04623980655371243 -0.053632839873404434 0.027572211298738922
0.04679829277398427 0.042224346313036946 -0.03739231191319943 -0.03979785505432307 -0.0565800334766503 -0.0356520492987911 -0.037889207224692016 0.052224550663790004
0.03442085502338412 -0.035043780086789884 0.036439321496798655 -0.035526367804494974 0.042084334084291436 -0.03714549610489826 -0.03574807988222756 -0.03547617637082066
0.03177360988171672 0.030827849870928195 -0.036884650254208846 -0.030038793997117726 -0.037969462002788515 -0.036777018525359514 0.030513221455482638 0.042846887827394875
-0.03601426564835842 -0.046874149223354894 0.03877816023291945 -0.048892186965721736 0.040556003881904674 0.057495265909002335 0.03392344461021461 -0.02454387062269437
0.0381280838481629 -0.02594465252839844 0.056817005422722576 0.04677995897198032 0.031018832189832406 -0.008522319809966154 0.03544119721958735 -0.03375890823450898
-0.03970037259408738 0.039395877452754746 -0.037705668688288306 0.038706140844317935 -0.0031711666129045344 0.04713943894463496 0.047934510238012346 0.044038103183324954
0.043961482420023415 0.05840574140713413 -0.037772245542592266 0.04403116342174486 0.028760098056035185 -0.03079634141323347 -0.04960157178079283 0.05313729694904983
-0.038128863626609395 0.04669521480968329 0.041736210981299246 0.044686169120288284
