NetworksModels/1466280861/fullyConnectedLayer2_weights.npy (npy, 451280 bytes, 1 tensors)

array f8 [100, 564]
000000 83 46 d0 e4 40 22 90 3f 6a fb 1f 25 76 45 8f 3f
       0.015755666700050696 0.015269206054652169
000010 12 98 ae 3f 0a 94 89 3f e1 59 90 ca 2f 55 8e 3f
       0.01248939520685258 0.014810918206461689
000020 9e d5 59 8e e0 34 8c 3f 60 be 8a c0 36 5f 87 3f
       0.01377273020191688 0.011412074805178196
000030 b6 4c ca 16 d7 f4 8d 3f 01 83 e2 08 f0 e2 86 3f
       0.014627151854517666 0.011175036688940933
000040 0f e2 44 e4 5c fc 8b 3f 1a 6d 05 d1 9c f4 88 3f
       0.013664937702388106 0.01218531144029682
000050 59 19 a6 ac df 29 8e 3f b8 ea ab 4c 27 2c 8d 3f
       0.014728305298160537 0.01424437239392283
000060 a0 77 e8 af ee cc 85 3f bf 5f 87 0f 9a 82 88 3f
       0.010644783728874618 0.011967853163625251
000070 10 ca bf 79 7f 95 8f 3f 07 c3 d2 53 e1 64 8a 3f
       0.015421863463392277 0.012887726183494331
000080 f6 33 49 d2 de 9b 8d 3f f7 19 52 0c fd 3f 8b 3f
       0.014457455437105065 0.013305642069338026
000090 70 76 9f e7 cc 77 85 3f fb 7d 58 d3 2d 78 8d 3f
       0.0104824073968601 0.014389379513032976
0000a0 53 ab 7e d2 86 28 88 3f db c2 42 ce dc b7 88 3f
       0.011796048449317508 0.01206943993051495
0000b0 cc 31 fb 89 54 6b 8c 3f 85 b4 78 68 1a 90 91 3f
       0.013876591168263362 0.01715127241748295
0000c0 33 16 7b cd 4e f0 8d 3f eb 12 c2 6b b6 ed 8d 3f
       0.014618507047440143 0.01461355701781871
0000d0 80 a8 e7 b0 8f 41 8f 3f 6c b6 e8 66 03 44 8b 3f
       0.015261766992768822 0.013313318803820105
0000e0 7d 7b 0c f4 e9 df 86 3f 68 2b f6 dd 0a 27 89 3f
       0.011169269333149984 0.012281498812418426
0000f0 da c3 25 8a fc be 89 3f 9c e2 56 ee 41 0d 8a 3f
       0.012571309057166791 0.012720599256554714
000100 15 70 18 45 cb 6f 89 3f 1e ba 75 11 90 92 86 3f
       0.012420261427045923 0.011021733792145712
000110 28 46 59 4d 6f 11 83 3f fa ca db 5f 76 c9 89 3f
       0.0093105979423483 0.0125912902835572
000120 98 96 13 6e 24 03 80 3f af fe 7d 1f b5 24 86 3f
       0.007818493470448204 0.010812201522411994
000130 38 05 68 33 97 27 87 3f b0 5b 8e 41 52 6d 82 3f
       0.011305981880470925 0.008997576356518738
000140 c6 b4 4f 0d 98 64 75 3f 32 88 52 47 1e ed 78 3f
       0.005222886994471659 0.006085508609574618
000150 df a7 a2 b7 2d 59 80 3f fd 83 d3 0c 71 89 80 3f
       0.007982594648939965 0.008074649051595268
000160 10 82 f1 82 08 1c 70 3f 38 ce 36 70 ae 8c 7e 3f
       0.003932984588658886 0.007458382987738647
000170 bc 2b 9c 69 c5 21 80 3f 04 e6 20 b9 cb e7 93 3f
       0.007876913342917173 0.019438918279979248
000180 ff de 96 b8 8c f2 94 3f 38 5a 99 ff 42 9e 92 3f
       0.02045650364536211 0.01818184552242938
000190 53 08 24 07 57 83 91 3f 45 d0 48 6f 11 c5 93 3f
       0.017102584658467212 0.019306442658674667
0001a0 75 43 25 d3 de 12 92 3f 2b 24 bb 47 fe 97 96 3f
       0.017650109898855477 0.022064183357347538
0001b0 f8 1d 10 dd a9 26 92 3f 91 ca ef a0 96 ed 93 3f
       0.01772561465989317 0.019461015293880172
0001c0 2b 62 33 02 07 f5 92 3f 82 76 9b ba ca 87 8c 3f
       0.018512830266305052 0.013930877513696819
0001d0 5e bd 2c b1 bc 43 94 3f 44 17 43 f9 a8 0f 93 3f
       0.019789646448029934 0.01861442586302721
0001e0 98 fe 78 89 ea 4f 96 3f 35 26 fc 42 a8 44 95 3f
       0.021789230957664246 0.020769719208180788
0001f0 91 8d 96 ec 5f 98 93 3f 2c ea f9 28 15 1c 93 3f
       0.01913595086592818 0.01866181433295304
000200 9f 36 18 29 4e 98 94 3f cc 31 24 b9 1c a8 90 3f
       0.0201122486669677 0.016266297149785378
000210 3e a9 5b 40 a6 f5 93 3f ad a9 a4 b6 09 59 92 3f
       0.019491765668967924 0.01791777779832564
000220 e2 da 2b 06 2f 8b 92 3f 7b e4 40 8c 4c 6b 94 3f
       0.018109068633715426 0.019940563259499982
000230 eb 44 cc 30 65 06 97 3f 01 83 4a 97 bc 28 93 3f
       0.022485333541287494 0.018710085615228248
000240 c0 10 9c c4 dc a6 92 3f 30 f0 b3 80 4d 95 96 3f
       0.018214654445743106 0.022053919773483865
000250 4d 9e 5a cd 13 f3 93 3f 9a 94 b1 7b aa 9e 91 3f
       0.019481954010784275 0.01720682506529112
000260 2d 80 d2 70 79 b7 98 3f f0 70 b5 6e 74 b5 94 3f
       0.024137399207234168 0.020223445183874256
000270 40 9b ae 90 3c 9c 93 3f 89 01 a6 51 62 31 96 3f
       0.01915068276471321 0.02167276023237855
000280 79 28 d2 07 07 a9 98 3f c0 e7 d4 b5 66 98 97 3f
       0.024082288601257027 0.023042301986812452
000290 bb 03 fa 52 35 c6 94 3f e4 de 59 a9 8e a5 99 3f
       0.02028735465001195 0.02504561337124657
0002a0 5d dd a5 07 6f d4 98 3f 5a 91 9c 6d a4 0b 9a 3f
       0.02424787029437191 0.025435036840592097
0002b0 a6 e9 97 df d0 20 9b 3f 03 48 4b 9f 0a 1f 9f 3f
       0.02649237026887765 0.030391851398981384
0002c0 02 73 d4 4e 3d bc 9b 3f 93 eb 46 c4 1e 7c 9e 3f
       0.027085264145273243 0.029770355920600244
0002d0 3f b4 3d 6f 3f 78 9f 3f a9 ce b3 16 74 ee 9c 3f
       0.03073214642011046 0.028253377805369215
0002e0 6b ac cd a7 aa 22 9d 3f f3 b0 ed 84 d8 1f 9c 3f
       0.028452555171878318 0.02746523200350821
0002f0 93 b6 bf 48 80 2f 81 3f 72 7a 76 71 6e 63 84 3f
       0.008391382427329652 0.009955275380716364
000300 30 3e 63 8c 04 3d 86 3f e6 d1 8b b2 94 a0 86 3f
       0.010858569654742828 0.01104847116355585
000310 06 d7 5b 5a 4b 98 7a 3f 6f e8 0f b2 b6 0a 86 3f
       0.006492895457759001 0.01076262217428711
000320 46 0d 0d 25 8a 9c 86 3f 78 ba 4b 1e fa 0f 86 3f
       0.011040763145166676 0.010772661256365654
000330 f5 45 d5 a9 96 55 7e 3f b6 8e 13 a2 88 20 86 3f
       0.007405842331836156 0.010804240652255142
000340 0b 28 90 76 09 b1 84 3f 1a 8e fd 40 68 30 83 3f
       0.010103296213873866 0.009369673236228105
000350 44 51 2d 8e 50 f4 8a 3f 15 7c 0f cf 1a 1a 84 3f
       0.013161305750749926 0.009815415805801956
000360 4f b0 4e 87 34 32 76 3f 33 be e4 10 4e 67 7e 3f
       0.005418973149897323 0.0074227380230663
000370 56 d2 eb ef a8 8f 71 3f 87 28 3d 7d f3 0d 82 3f
       0.004287395392328882 0.008815672168243317
000380 ea a7 c7 11 63 38 85 3f a2 ce d1 ce 40 e6 84 3f
       0.010361455898379963 0.010204798041946465
000390 5e 91 1b c3 50 08 81 3f e8 dd 19 04 85 74 81 3f
       0.008316641763891294 0.00852302473798168
0003a0 35 de f8 fa 00 49 81 3f 96 ad 13 9c cd b3 7e 3f
       0.008440025004445942 0.007495692408365248
0003b0 59 28 af 67 6d f1 80 3f dc de 94 b4 65 6b 76 3f
       0.008272986151400529 0.005473515783982665
0003c0 eb 64 e6 fc b2 92 78 3f ab de 93 94 fd b7 79 3f
       0.005999278232047471 0.006278982685436733
0003d0 4d da d0 43 a6 fc 64 3f b0 db d8 80 8c 7c 63 3f
       0.002561878906387072 0.002378725452924134
0003e0 80 84 0a 5b 68 41 61 3f 90 45 c6 3c 58 9a 78 3f
       0.0021063841052897936 0.006006569554658184
0003f0 93 01 e1 2b 8d 8f 68 bf f6 37 6a 52 e3 66 31 bf
       -0.0029981381658503252 -0.0002655320153416291
000400 f8 41 4a c2 8d 80 78 bf f9 75 f7 b5 19 9f 7b bf
       -0.0059819734057246984 -0.006743526871529231
000410 33 85 37 a7 7e 24 6e bf 33 ff f2 af 8c 63 76 bf
       -0.0036795114226470193 -0.005466031608363941
000420 2c 89 3a ce 6c 73 83 bf ea 9f ef b7 af 0d 86 bf
       -0.009497499507521732 -0.010768292237074168
000430 d3 da c1 10 e3 d9 8d bf 57 a0 10 85 fb 93 89 bf
       -0.014575742672815839 -0.01248928546745291
000440 85 94 a2 20 27 75 8f bf 40 22 f1 40 24 42 92 bf
       -0.01536017006248814 -0.017830435241452003
000450 ca 11 d3 df f2 10 8f bf 86 de 51 b9 19 95 90 bf
       -0.01516904588277947 -0.01619377320864015
000460 14 cc bb 0d 4f be 92 bf 19 7d 02 8d c3 44 53 3f
       -0.01830409547160279 0.001176062553021334
000470 66 dd 84 d5 c5 3f 72 bf 16 64 ed 25 5f c3 65 bf
       -0.004455349721232826 -0.002656637035596275
000480 4f 1c d3 69 f7 f6 75 bf 3b 37 bc 3a 03 a6 4b bf
       -0.005362478693491004 -0.0008437648552630303
000490 37 51 1e d6 aa ec 5f bf 58 c5 e1 ee b1 97 6d bf
       -0.001948515732213952 -0.003612372899674792
0004a0 58 c7 d9 1a 1b 76 66 bf e9 2f c6 78 7e 10 75 bf
       -0.0027418641464515385 -0.005142683058135569
0004b0 78 43 39 ee 4e 86 21 bf fb 85 a4 19 4c 7a 6a bf
       -0.00013370240695789368 -0.0032321440059070983
0004c0 9f 24 0b ad 9b 27 74 bf 8d 5b 63 6e 1a cd 63 bf
       -0.004920585736450849 -0.0024171367868847716
0004d0 55 ec 79 ab 60 25 5c bf 61 37 5b d9 04 8f 70 bf
       -0.0017178958932209294 -0.00404264349135794
0004e0 ca 50 88 7a f8 1b 75 bf 4a a5 4c 76 c0 7f 5a bf
       -0.005153627986619289 -0.0016173724663509242
0004f0 51 b5 70 0f 85 8f 7b bf f9 8b 2e f2 39 be 7d bf
       -0.006728667990541241 -0.0072614921108735625
000500 f2 6b 7e ba e5 6e 7d bf b0 3d 34 84 65 d3 74 bf
       -0.007185838105125507 -0.005084415958904229
000510 1e 83 0f 07 08 f6 75 bf 95 41 a1 54 89 01 72 bf
       -0.005361586911903497 -0.004395996520614527
000520 01 d3 3f c6 c1 c0 80 bf ed 02 ab 55 25 fe 80 bf
       -0.008180154669369612 -0.008297244717483799
000530 5b 23 f6 ae e3 a0 89 bf 20 fd 10 40 4d e3 84 bf
       -0.012513903405094664 -0.01019916869893095
000540 d9 d9 1c 92 cb 9e 8a bf e8 b6 75 16 60 71 8f bf
       -0.012998190304284772 -0.015352965054911974
000550 f6 3a 1a 75 0d 08 90 bf 77 62 34 ea 76 ce 96 bf
       -0.01565571810948093 -0.022271974606243163
000560 6b dd db 72 7a 73 99 bf 4e 17 08 5c d2 59 9c bf
       -0.024854577312877362 -0.027686392657435825
000570 63 4b 04 00 95 b5 a0 bf 0a 10 a3 2a c6 ba a2 bf
       -0.03263536095814492 -0.03658122320624109
000580 e9 5c c1 05 08 93 a3 bf bf 84 9f ed 4e a2 a6 bf
       -0.03823113508468074 -0.044207064158180646
000590 e2 dc 50 cb 95 06 a7 bf f5 7a 4f 08 3c 9f aa bf
       -0.04497211558230575 -0.05199611283727804
0005a0 d8 7f 74 8d aa 12 ac bf 9a 42 61 64 29 86 ac bf
       -0.054829911963906575 -0.05571107244816638
0005b0 fb 7b 75 23 1c 84 ae bf f3 c1 79 18 c0 2d af bf
       -0.05960166867111379 -0.060895922649141364
0005c0 e7 94 eb 83 f3 a4 b0 bf 18 28 f7 85 70 1a b1 bf
       -0.065016956050005 -0.06680968542710308
0005d0 ae 7b a4 98 c8 9a b1 bf 8c 98 45 70 08 99 b2 bf
       -0.06876805998443444 -0.07264759770404988
0005e0 bb e8 f5 db fe 3f 8f 3f 91 16 df e5 88 19 92 3f
       0.015258780563034305 0.01767553236984171
0005f0 49 6d 8d d2 f8 c5 87 3f e2 94 7f 70 5c 44 91 3f
       0.011608070302534872 0.016862339369159048
000600 57 f1 e3 84 6b a1 90 3f 7f c5 dd 30 29 4a 8a 3f
       0.016240768419252784 0.012836763194828958
000610 d3 c3 42 00 89 da 91 3f 67 44 48 ce e9 a9 91 3f
       0.017435207978170397 0.017249730315658598
000620 92 51 9f c0 1f e4 91 3f e9 9d ad 07 df 30 92 3f
       0.017471786624655268 0.017764553874625753
000630 95 71 95 aa 3e 9f 8e 3f 4b c1 8c 66 c5 c6 8f 3f
       0.014952172833255154 0.015515844528267172
000640 eb 35 b3 da bc 73 90 3f 02 89 2f f9 cc e8 91 3f
       0.016066504333869174 0.017489626607024363
000650 87 39 d5 03 d1 53 8f 3f 9e 83 68 d2 3d 4b 8d 3f
       0.01529658596942053 0.014303668006563627
000660 0b 28 ba 35 51 b9 90 3f 1b 61 02 73 25 27 91 3f
       0.016331929115530424 0.016750893730745547
000670 90 ef 90 b7 18 4c 91 3f f2 62 ff 6b d0 c0 94 3f
       0.016891847805012683 0.020266777602816206
000680 c1 7f 78 3a 29 b1 90 3f db e4 e7 e0 ba 95 91 3f
       0.016300815767067215 0.01717273709980281
000690 18 5a 8d 46 d2 41 90 3f b8 3a 1f 68 d4 61 8d 3f
       0.015876088672792305 0.014346751620818096
0006a0 9c b2 74 5a 91 fe 8a 3f 8b 22 20 81 a9 86 93 3f
       0.013180862019532662 0.019068382745930406
0006b0 34 b3 00 36 51 f8 91 3f ea b0 8c 8a bc de 8e 3f
       0.017548817559304555 0.015073273637959923
0006c0 62 91 dc 90 90 0d 96 3f d5 68 f3 9b 06 d8 95 3f
       0.021536120263719545 0.021331885593874517
0006d0 55 02 8c a9 65 b8 93 3f 05 fb 0e 43 fb a0 92 3f
       0.01925810668308466 0.01819222065727912
0006e0 bd ac 4b 34 73 cf 93 3f f9 43 5e 72 3e c9 93 3f
       0.019346046511526483 0.019322372179491485
0006f0 45 af 10 26 a3 47 95 3f 1e 85 70 70 48 0b 96 3f
       0.020781087110818736 0.021527416098369938
000700 59 45 28 65 d8 50 95 3f 0c d0 38 43 01 31 96 3f
       0.020816212820198163 0.02167131398000781
000710 f6 6a b5 48 65 86 97 3f c5 b5 1b c5 4d 97 95 3f
       0.02297361618307555 0.021084990649731034
000720 aa 32 59 61 f8 71 96 3f e1 c0 8e 39 c3 53 99 3f
       0.021919136945416064 0.02473359144977472
000730 ba 2f d5 4d e7 a9 94 3f 51 f4 9f d3 8c dc 95 3f
       0.020179380536589277 0.021349144379190502
000740 19 ac 35 47 23 56 9a 3f 3b cd cf 84 b5 b2 98 3f
       0.025719214650433118 0.02411922095411721
000750 5b e6 c9 a1 24 9d 99 3f 50 73 da 27 44 f9 78 bf
       0.025013515829846216 -0.006097093804467615
000760 4d c1 4f 7b 0a ce 85 bf 1f a3 cf c9 0d d2 80 bf
       -0.010646898163003593 -0.008213145943913923
000770 1e d9 30 ea 34 d7 86 bf bc 10 31 f4 af eb 84 bf
       -0.011152661702095442 -0.010215162887228117
000780 90 d1 54 c4 8d 46 87 bf 1a fc bf 83 a6 f9 87 bf
       -0.01136503940015457 -0.011706639190377333
000790 67 67 ee 70 fc df 86 bf 30 e9 b1 85 29 6a 7f bf
       -0.01116940707816001 -0.007669603534959088
0007a0 2b b4 6f 31 b2 2a 84 bf 16 5a 15 c9 89 35 88 bf
       -0.00984706128471132 -0.011820866059378193
0007b0 48 31 cd 5a 39 77 75 bf 8b a4 57 f8 51 cd 7c bf
       -0.00524065403153557 -0.007031746097234347
0007c0 ad 86 30 2c df 10 89 bf f3 23 1d 0d 1a ab 88 bf
       -0.01223921159368343 -0.012045100712969136
0007d0 0c 8d 77 64 b0 a9 8a bf 86 6b cc c8 1d b0 84 bf
       -0.013018968645104788 -0.010101540270218267
0007e0 bd 78 c6 d6 cb 20 85 bf 82 6d 27 13 7d 6e 87 bf
       -0.010316460124894506 -0.011441208979639187
0007f0 09 d0 99 95 4f 8b 84 bf d8 dc 37 1c 6a bb 89 bf
       -0.010031339409785305 -0.012564496027137315
