NetworksModels/1466280861/fullyConnectedLayer2_biases.npy (npy, 880 bytes, 1 tensors)

array f8 [100]
000000 b7 ed 87 08 a9 4b ab 3f 23 1f 08 4d 81 80 88 3f
       0.053311617175463004 0.01196385399181527
000010 30 4e 71 53 03 52 e6 bf 08 14 fb 9a 02 e8 bd 3f
       -0.6975113515604274 0.11682144435606301
000020 f5 4f 0a a9 90 ec f1 3f 5b c9 9e a8 60 1c f1 bf
       1.1202551463256871 -1.0694281183937935
000030 0c 14 a1 62 e8 6b cf 3f 1e 99 e9 df 41 c3 d7 3f
       0.24548058334235667 0.37129256121115073
000040 f0 c5 2d e3 e0 e8 db 3f 64 ec ad ce 16 a9 02 c0
       0.4360887735884651 -2.332563032801362
000050 4c 52 88 ad 93 f9 e7 3f fb ec 3b db c3 a1 c9 3f
       0.7492159261042359 0.20024917797841355
000060 81 c1 ab 16 c9 31 f0 3f 15 0a 58 0c 6a f5 e1 bf
       1.0121546636183612 -0.5612077942935821
000070 1f 0b 56 cf e2 6f ac bf cc 62 0a 17 c5 54 c3 bf
       -0.055541122254928015 -0.151024471521643
000080 9d 01 ea 06 8a bf f0 bf b2 5d fb 90 74 32 9a 3f
       -1.0467624921876457 0.02558309683703692
000090 8b a3 8c 43 30 96 ec 3f 2d 1d 02 32 b3 7c e0 3f
       0.893333560879101 0.515222165748957
0000a0 20 7e e8 5c ce b2 dd bf 48 a9 8d 31 c8 74 eb bf
       -0.4640384585672752 -0.8580056159819742
0000b0 4f 5d 51 8b 13 54 9d bf 40 69 60 26 48 92 e4 3f
       -0.028641038301740192 0.6428566693823896
0000c0 42 43 15 b7 07 03 bf bf 95 8c d9 37 a3 1b fb 3f
       -0.12113998622704705 1.6942474538452974
0000d0 09 3a b3 ee e7 c7 ef bf ca ba 25 73 59 f7 f2 bf
       -0.9931525861846363 -1.185388040346583
0000e0 78 02 ba 71 82 a5 fb 3f 21 6e f6 51 95 ce e2 3f
       1.727907604450733 0.587717685778845
0000f0 0b 68 f5 5f ec 62 d8 bf 86 95 d9 84 ae de e7 bf
       -0.3810378014655959 -0.7459328264928196
000100 84 dc 91 f1 42 1f c9 bf 97 c2 b8 24 8c 3c e9 3f
       -0.19626652522467591 0.7886410443516806
000110 d2 de 94 41 1a 55 f2 3f a1 6e fa 74 b4 ef 68 3f
       1.1457769929674453 0.0030439877080662013
000120 2b 44 69 6c 74 b6 f3 3f 07 ec 24 90 68 d5 d3 3f
       1.2320446238338814 0.3099004180582487
000130 93 62 8c 85 92 29 f6 bf ce 86 20 40 e4 bb fd 3f
       -1.3851494995816764 1.8583719735110438
000140 77 df 85 df 0f 7f e9 3f 53 4e 52 a0 50 98 e0 bf
       0.7967604985887949 -0.5185931330947348
000150 d6 69 4f dc b7 ca e1 bf 63 99 73 76 23 a1 e9 3f
       -0.5559958746846927 0.8009202302462594
000160 2c 7a be 88 66 5c da 3f ab 77 f6 62 42 fa df 3f
       0.41188968042289065 0.4996496168549764
000170 1e 16 fe c7 8a 0c e9 bf ab 06 1f 2b 4f b9 e2 bf
       -0.7827810197929386 -0.5851207582674837
000180 7e 02 b1 50 66 5a bc 3f 71 8d 88 05 55 43 e4 3f
       0.110754389476833 0.6332192524027233
000190 f1 e5 30 e0 d5 d5 96 bf 88 57 6b e3 c8 39 93 3f
       -0.022300092514546625 0.01877511871392515
0001a0 d8 e4 c3 6c 44 b8 f3 bf 82 e7 84 4d 79 bd d3 3f
       -1.2324871300354996 0.30843956537466266
0001b0 e7 3a 79 0c a4 62 01 40 4b d0 3e 92 2e 0e ee bf
       2.1731644606110083 -0.9392311912874985
0001c0 51 bb 5b 80 8d 3f b0 3f d7 a0 23 58 24 2c f0 3f
       0.06346973785160272 1.0107768481193966
0001d0 c2 66 de 57 0b 53 f8 3f 86 33 bb b9 8a 63 da 3f
       1.5202744896291027 0.41232555520837655
0001e0 aa 1d c3 fe 6d fc f9 bf dd a5 f9 9a 88 38 d4 bf
       -1.6241283370635338 -0.3159505380086481
0001f0 f0 ed a2 93 65 c3 f3 3f 15 bb 2b 88 80 4c f1 bf
       1.2352042929695664 -1.0811772650883473
000200 ee 68 f1 f4 71 34 e7 3f 56 27 47 58 bf 4d ea 3f
       0.7251519950907814 0.8219906543902009
000210 4e f4 9c 0b 44 30 f0 bf 36 36 be 68 3b 96 f1 3f
       -1.0117836431156948 1.0991777507328044
000220 bf 57 62 a6 3e b7 e8 3f 9a f9 f5 68 a8 8d cd 3f
       0.7723687410059411 0.23088555455246934
000230 ec 45 3b 95 bc fa f9 3f 67 39 36 3c da 29 f0 3f
       1.6237150029522764 1.0102178909324608
000240 27 cc 33 42 64 59 df 3f 3f a7 97 8b ee 01 f2 3f
       0.4898310324198882 1.1254716351345022
000250 0f 0b 82 49 7d 60 e2 bf 0d a2 48 3f 81 d6 c8 bf
       -0.5742784915640601 -0.19404616918588183
000260 3c ee d6 f2 4e 32 eb 3f 62 34 86 6a 0a 37 e3 3f
       0.8498911612472919 0.600468833975935
000270 fa 4e 8e e1 df 18 bc 3f 7e 89 41 4c 83 7f f3 3f
       0.10975455528960856 1.218631074786202
000280 c7 28 ce 2b 81 d3 ec 3f 1c b7 5f 21 00 df d6 3f
       0.9008184295246559 0.3573608709256051
000290 67 d5 a0 96 5c 58 b3 bf 35 44 63 46 15 66 ce bf
       -0.0755670421356932 -0.23749032914068527
0002a0 e3 84 f0 0c e9 4f fc 3f 68 42 54 43 47 5d ea bf
       1.7695093636942196 -0.8238865199110252
0002b0 09 a8 a2 20 ce 83 f1 bf bc 59 bc a5 61 f3 de bf
       -1.0946790003604312 -0.4836048239243629
0002c0 98 9c 53 05 70 03 e3 bf 8f 1f 99 6d ac 5e c0 bf
       -0.5941696266207996 -0.12788920737716267
0002d0 89 6a 85 39 7e 58 e0 3f 7f dc 62 cc 54 f6 dd bf
       0.5108023761234374 -0.4681598659476051
0002e0 46 d1 04 03 49 27 f7 3f e1 ac c6 c1 61 51 eb 3f
       1.447091113846072 0.8536843094529126
0002f0 fe 95 8c f8 e5 51 df bf cc 5b 61 ba 36 0b b4 3f
       -0.4893736769903113 0.0782961087255522
000300 42 f4 b0 47 f5 58 f1 bf df c3 9f 63 7a ca ec bf
       -1.0842182922781523 -0.8997165628226148
000310 3e 64 d1 d6 7e cd d8 3f 9d 14 26 c0 af fc ce bf
       0.38754244783700986 -0.2420863807894066
